…
    backend: LEVELDB
  }
}
layer {
  name: "output"
  type: "Data"
  top: "output"
  include {
    phase: TRAIN
  }
  transform_param {
    mean_file: "/media/mudigonda/Gondor/Data/3dFace/ldb_meanfile.proto"
  }
  data_param {
    source: "/media/mudigonda/Gondor/Data/3dFace/train_output"
    batch_size: 256
    backend: LEVELDB
  }
}
layer {
  name: "transformations"
  type: "Data"
  top: "transformations"
  include {
    phase: TRAIN
  }
  data_param {
    source: "/media/mudigonda/Gondor/Data/3dFace/train_transf"
    batch_size: 256
    backend: LEVELDB
  }
}
layer {
  name: "conv1"
  type: "Convolution"
  bottom: "input"
  top: "conv1"
  param {
    lr_mult: 1
    decay_mult: 1
  }
  param {
    lr_mult: 1
    decay_mult: 0
  }
  convolution_param {
    num_output: 64
    pad: 1
    kernel_size: 3
    stride: 1
    weight_filler {
      type: "xavier"
    }
  }
}
layer {
  name: "pool1"
  type: "Pooling"
  bottom: "conv1"
  top: "pool1"
  pooling_param {
    pool: MAX
    kernel_size: 3
    stride: 2
  }
}
layer {
  name: "relu1"
  type: "ReLU"
  bottom: "pool1"
  top: "pool1"
}
layer {
  name: "conv2"
  type: "Convolution"
  bottom: "pool1"
  top: "conv2"
  param {
    lr_mult: 1
    decay_mult: 1
  }
  param {
    lr_mult: 1
    decay_mult: 0
  }
  convolution_param {
    num_output: 64
    pad: 1
    kernel_size: 3
    stride: 1
    weight_filler {
      type: "xavier"
    }
  }
}
layer {
  name: "relu2"
  type: "ReLU"
  bottom: "conv2"
  top: "conv2"
}
layer {
  name: "pool2"
  type: "Pooling"
  bottom: "conv2"
  top: "pool2"
  pooling_param {
    pool: MAX
    kernel_size: 3
    stride: 2
  }
}
layer {
  name: "transf_to_hidden"
  type: "InnerProduct"
  bottom: "transformations"
  top: "transf_to_hidden"
  param {
    lr_mult: 1
    decay_mult: 1
  }
  param {
    lr_mult: 1
    decay_mult: 0
  }
  inner_product_param {
    num_output: 100
    weight_filler {
      type: "xavier"
    }
  }
}
layer {
  name: "pool_to_hidden"
  type: "InnerProduct"
  bottom: "pool2"
  top: "pool_to_hidden"
  param {
    lr_mult: 1
    decay_mult: 1
  }
  param {
    lr_mult: 1
    decay_mult: 0
  }
  inner_product_param {
    num_output: 1000
    weight_filler {
      type: "xavier"
    }
  }
}
layer {
  name: "hidden_to_relu"
  type: "ReLU"
  bottom: "pool_to_hidden"
  top: "pool_to_hidden"
}
layer {
  name: "concat_transf_vision"
  type: "Concat"
  bottom: "pool_to_hidden"
  bottom: "transf_to_hidden"
  top: "concat_transf_vision"
  concat_param {
    concat_dim: 1
  }
}
layer {
  name: "concat_to_relu"
  type: "ReLU"
  bottom: "concat_transf_vision"
  top: "concat_transf_vision"
}
layer {
  name: "concat_to_hidden1"
  type: "InnerProduct"
  bottom: "concat_transf_vision"
  top: "concat_to_hidden1"
  param {
    lr_mult: 1
    decay_mult: 1
  }
  param {
    lr_mult: 1
    decay_mult: 0
  }
  inner_product_param {
    num_output: 1000
    weight_filler {
      type: "xavier"
    }
  }
}
layer {
  name: "hidden_to_output"
  type: "InnerProduct"
  bottom: "concat_to_hidden1"
  top: "hidden_to_output"
  param {
    lr_mult: 1
    decay_mult: 1
  }
  param {
    lr_mult: 1
    decay_mult: 0
  }
  inner_product_param {
    num_output: 12288
    weight_filler {
      type: "xavier"
    }
  }
}
layer {
  name: "flattened_hidden_to_output"
  type: "Flatten"
  bottom: "hidden_to_output"
  top: "flattened_hidden_to_output"
}
layer {
  name: "flattened_output"
  type: "Flatten"
  bottom: "output"
  top: "flattened_output"
}
layer {
  name: "loss"
  type: "EuclideanLoss"
  bottom: "flattened_hidden_to_output"
  bottom: "flattened_output"
  top: "l2_error"
  loss_weight: 0.0001
}
I0301 20:11:12.376647  3292 layer_factory.hpp:74] Creating layer input
I0301 20:11:12.376667  3292 net.cpp:76] Creating Layer input
I0301 20:11:12.376688  3292 net.cpp:334] input -> input
I0301 20:11:12.376713  3292 net.cpp:105] Setting up input
I0301 20:11:12.469113  3292 db.cpp:20] Opened leveldb /media/mudigonda/Gondor/Data/3dFace/train_input
I0301 20:11:12.473153  3292 data_layer.cpp:67] output data size: 256,3,64,64
I0301 20:11:12.473196  3292 data_transformer.cpp:22] Loading mean file from: /media/mudigonda/Gondor/Data/3dFace/ldb_meanfile.proto
I0301 20:11:12.478652  3292 net.cpp:112] Top shape: 256 3 64 64 (3145728)
I0301 20:11:12.478785  3292 layer_factory.hpp:74] Creating layer output
I0301 20:11:12.478804  3292 net.cpp:76] Creating Layer output
I0301 20:11:12.478811  3292 net.cpp:334] output -> output
I0301 20:11:12.478837  3292 net.cpp:105] Setting up output
I0301 20:11:12.544982  3292 db.cpp:20] Opened leveldb /media/mudigonda/Gondor/Data/3dFace/train_output
I0301 20:11:12.548938  3292 data_layer.cpp:67] output data size: 256,3,64,64
I0301 20:11:12.548977  3292 data_transformer.cpp:22] Loading mean file from: /media/mudigonda/Gondor/Data/3dFace/ldb_meanfile.proto
I0301 20:11:12.552131  3292 net.cpp:112] Top shape: 256 3 64 64 (3145728)
I0301 20:11:12.552167  3292 layer_factory.hpp:74] Creating layer transformations
I0301 20:11:12.552187  3292 net.cpp:76] Creating Layer transformations
I0301 20:11:12.552196  3292 net.cpp:334] transformations -> transformations
I0301 20:11:12.552211  3292 net.cpp:105] Setting up transformations
I0301 20:11:12.637676  3292 db.cpp:20] Opened leveldb /media/mudigonda/Gondor/Data/3dFace/train_transf
I0301 20:11:12.637964  3292 data_layer.cpp:67] output data size: 256,1,3,1
I0301 20:11:12.638064  3292 net.cpp:112] Top shape: 256 1 3 1 (768)
I0301 20:11:12.638087  3292 layer_factory.hpp:74] Creating layer conv1
I0301 20:11:12.638124  3292 net.cpp:76] Creating Layer conv1
I0301 20:11:12.638154  3292 net.cpp:372] conv1 <- input
I0301 20:11:12.638173  3292 net.cpp:334] conv1 -> conv1
I0301 20:11:12.638190  3292 net.cpp:105] Setting up conv1
I0301 20:11:12.638550  3292 net.cpp:112] Top shape: 256 64 64 64 (67108864)
I0301 20:11:12.638591  3292 layer_factory.hpp:74] Creating layer pool1
I0301 20:11:12.638602  3292 net.cpp:76] Creating Layer pool1
I0301 20:11:12.638607  3292 net.cpp:372] pool1 <- conv1
I0301 20:11:12.638613  3292 net.cpp:334] pool1 -> pool1
I0301 20:11:12.638623  3292 net.cpp:105] Setting up pool1
I0301 20:11:12.638654  3292 net.cpp:112] Top shape: 256 64 32 32 (16777216)
I0301 20:11:12.638660  3292 layer_factory.hpp:74] Creating layer relu1
I0301 20:11:12.638698  3292 net.cpp:76] Creating Layer relu1
I0301 20:11:12.638708  3292 net.cpp:372] relu1 <- pool1
I0301 20:11:12.638715  3292 net.cpp:323] relu1 -> pool1 (in-place)
I0301 20:11:12.638722  3292 net.cpp:105] Setting up relu1
I0301 20:11:12.638730  3292 net.cpp:112] Top shape: 256 64 32 32 (16777216)
I0301 20:11:12.638736  3292 layer_factory.hpp:74] Creating layer conv2
I0301 20:11:12.638744  3292 net.cpp:76] Creating Layer conv2
I0301 20:11:12.638761  3292 net.cpp:372] conv2 <- pool1
I0301 20:11:12.638794  3292 net.cpp:334] conv2 -> conv2
I0301 20:11:12.638805  3292 net.cpp:105] Setting up conv2
I0301 20:11:12.639523  3292 net.cpp:112] Top shape: 256 64 32 32 (16777216)
I0301 20:11:12.639575  3292 layer_factory.hpp:74] Creating layer relu2
I0301 20:11:12.639592  3292 net.cpp:76] Creating Layer relu2
I0301 20:11:12.639605  3292 net.cpp:372] relu2 <- conv2
I0301 20:11:12.639621  3292 net.cpp:323] relu2 -> conv2 (in-place)
I0301 20:11:12.639644  3292 net.cpp:105] Setting up relu2
I0301 20:11:12.639652  3292 net.cpp:112] Top shape: 256 64 32 32 (16777216)
I0301 20:11:12.639658  3292 layer_factory.hpp:74] Creating layer pool2
I0301 20:11:12.639670  3292 net.cpp:76] Creating Layer pool2
I0301 20:11:12.639677  3292 net.cpp:372] pool2 <- conv2
I0301 20:11:12.639683  3292 net.cpp:334] pool2 -> pool2
I0301 20:11:12.639714  3292 net.cpp:105] Setting up pool2
I0301 20:11:12.639730  3292 net.cpp:112] Top shape: 256 64 16 16 (4194304)
I0301 20:11:12.639741  3292 layer_factory.hpp:74] Creating layer transf_to_hidden
I0301 20:11:12.639768  3292 net.cpp:76] Creating Layer transf_to_hidden
I0301 20:11:12.639783  3292 net.cpp:372] transf_to_hidden <- transformations
I0301 20:11:12.639801  3292 net.cpp:334] transf_to_hidden -> transf_to_hidden
I0301 20:11:12.639823  3292 net.cpp:105] Setting up transf_to_hidden
I0301 20:11:12.639863  3292 net.cpp:112] Top shape: 256 100 1 1 (25600)
I0301 20:11:12.639891  3292 layer_factory.hpp:74] Creating layer pool_to_hidden
I0301 20:11:12.639911  3292 net.cpp:76] Creating Layer pool_to_hidden
I0301 20:11:12.639922  3292 net.cpp:372] pool_to_hidden <- pool2
I0301 20:11:12.639943  3292 net.cpp:334] pool_to_hidden -> pool_to_hidden
I0301 20:11:12.639964  3292 net.cpp:105] Setting up pool_to_hidden
I0301 20:11:12.740154  3292 net.cpp:112] Top shape: 256 1000 1 1 (256000)
I0301 20:11:12.740193  3292 layer_factory.hpp:74] Creating layer hidden_to_relu
I0301 20:11:12.740207  3292 net.cpp:76] Creating Layer hidden_to_relu
I0301 20:11:12.740216  3292 net.cpp:372] hidden_to_relu <- pool_to_hidden
I0301 20:11:12.740224  3292 net.cpp:323] hidden_to_relu -> pool_to_hidden (in-place)
I0301 20:11:12.740245  3292 net.cpp:105] Setting up hidden_to_relu
I0301 20:11:12.740252  3292 net.cpp:112] Top shape: 256 1000 1 1 (256000)
I0301 20:11:12.740257  3292 layer_factory.hpp:74] Creating layer concat_transf_vision
I0301 20:11:12.740268  3292 net.cpp:76] Creating Layer concat_transf_vision
I0301 20:11:12.740272  3292 net.cpp:372] concat_transf_vision <- pool_to_hidden
I0301 20:11:12.740278  3292 net.cpp:372] concat_transf_vision <- transf_to_hidden
I0301 20:11:12.740285  3292 net.cpp:334] concat_transf_vision -> concat_transf_vision
I0301 20:11:12.740296  3292 net.cpp:105] Setting up concat_transf_vision
I0301 20:11:12.740305  3292 net.cpp:112] Top shape: 256 1100 1 1 (281600)
I0301 20:11:12.740310  3292 layer_factory.hpp:74] Creating layer concat_to_relu
I0301 20:11:12.740317  3292 net.cpp:76] Creating Layer concat_to_relu
I0301 20:11:12.740324  3292 net.cpp:372] concat_to_relu <- concat_transf_vision
I0301 20:11:12.740330  3292 net.cpp:323] concat_to_relu -> concat_transf_vision (in-place)
I0301 20:11:12.740336  3292 net.cpp:105] Setting up concat_to_relu
I0301 20:11:12.740340  3292 net.cpp:112] Top shape: 256 1100 1 1 (281600)
I0301 20:11:12.740345  3292 layer_factory.hpp:74] Creating layer concat_to_hidden1
I0301 20:11:12.740352  3292 net.cpp:76] Creating Layer concat_to_hidden1
I0301 20:11:12.740358  3292 net.cpp:372] concat_to_hidden1 <- concat_transf_vision
I0301 20:11:12.740365  3292 net.cpp:334] concat_to_hidden1 -> concat_to_hidden1
I0301 20:11:12.740371  3292 net.cpp:105] Setting up concat_to_hidden1
I0301 20:11:12.747040  3292 net.cpp:112] Top shape: 256 1000 1 1 (256000)
I0301 20:11:12.747056  3292 layer_factory.hpp:74] Creating layer hidden_to_output
I0301 20:11:12.747063  3292 net.cpp:76] Creating Layer hidden_to_output
I0301 20:11:12.747068  3292 net.cpp:372] hidden_to_output <- concat_to_hidden1
I0301 20:11:12.747074  3292 net.cpp:334] hidden_to_output -> hidden_to_output
I0301 20:11:12.747118  3292 net.cpp:105] Setting up hidden_to_output
I0301 20:11:12.818759  3292 net.cpp:112] Top shape: 256 12288 1 1 (3145728)
I0301 20:11:12.818799  3292 layer_factory.hpp:74] Creating layer flattened_hidden_to_output
I0301 20:11:12.818817  3292 net.cpp:76] Creating Layer flattened_hidden_to_output
I0301 20:11:12.818822  3292 net.cpp:372] flattened_hidden_to_output <- hidden_to_output
I0301 20:11:12.818832  3292 net.cpp:334] flattened_hidden_to_output -> flattened_hidden_to_output
I0301 20:11:12.818855  3292 net.cpp:105] Setting up flattened_hidden_to_output
I0301 20:11:12.818861  3292 net.cpp:112] Top shape: 256 12288 1 1 (3145728)
I0301 20:11:12.818866  3292 layer_factory.hpp:74] Creating layer flattened_output
I0301 20:11:12.818871  3292 net.cpp:76] Creating Layer flattened_output
I0301 20:11:12.818876  3292 net.cpp:372] flattened_output <- output
I0301 20:11:12.818881  3292 net.cpp:334] flattened_output -> flattened_output
I0301 20:11:12.818887  3292 net.cpp:105] Setting up flattened_output
I0301 20:11:12.818892  3292 net.cpp:112] Top shape: 256 12288 1 1 (3145728)
I0301 20:11:12.818897  3292 layer_factory.hpp:74] Creating layer loss
I0301 20:11:12.818904  3292 net.cpp:76] Creating Layer loss
I0301 20:11:12.818909  3292 net.cpp:372] loss <- flattened_hidden_to_output
I0301 20:11:12.818914  3292 net.cpp:372] loss <- flattened_output
I0301 20:11:12.818923  3292 net.cpp:334] loss -> l2_error
I0301 20:11:12.818931  3292 net.cpp:105] Setting up loss
I0301 20:11:12.818940  3292 net.cpp:112] Top shape: 1 1 1 1 (1)
I0301 20:11:12.818946  3292 net.cpp:118]     with loss weight 0.0001
I0301 20:11:12.818971  3292 net.cpp:163] loss needs backward computation.
I0301 20:11:12.818977  3292 net.cpp:165] flattened_output does not need backward computation.
I0301 20:11:12.818981  3292 net.cpp:163] flattened_hidden_to_output needs backward computation.
I0301 20:11:12.818986  3292 net.cpp:163] hidden_to_output needs backward computation.
…
